models/model.pth (torch, 142388 bytes, 6 tensors)

xi_featurizer_weight f4 [50, 100]
0	0x3b311ae0	0.0027024075
1	0x3f700262	0.93753636
2	0xbb08c8ac	-0.0020871563
3	0xc09e3a53	-4.9446197
4	0x3efb8824	0.49127305
5	0x3c5d95ce	0.013524486
6	0x3ec9e769	0.39434364
7	0xbf0875ee	-0.53304946
8	0xbdffaae2	-0.12483765
9	0x3ed77c9d	0.4208726
10	0x3dcdce48	0.10049111
11	0xc098bce9	-4.7730603
12	0xc06455ca	-3.5677361
13	0x3f59db17	0.8509993
14	0xc00c9490	-2.1965675
15	0x3ddc8daa	0.10769208
16	0xbbea6e99	-0.0071542975
17	0x4003ca8c	2.0592375
18	0x3a41beea	0.0007390814
19	0xbeda1cd0	-0.42600107
20	0xc0606a3c	-3.506484
21	0x3f516f06	0.81810033
22	0xc0291f46	-2.6425338
23	0x3d97eba5	0.074179925
24	0x3be61562	0.007021592
25	0xbe608cc2	-0.21928695
26	0xbfc10bdf	-1.5081748
27	0xbffef01b	-1.9917024
28	0xbfb668f9	-1.4250785
29	0x411708bf	9.439635
30	0x413ac2f1	11.672593
31	0xbf1767f1	-0.59142977
32	0x3ea884e1	0.3291388
33	0xc08258c3	-4.073335
34	0xc010a37a	-2.2599778
35	0x3e03536e	0.12824795
36	0x4012f9ea	2.2965035
37	0x403f5487	2.9895341
38	0xbed3a45e	-0.4133634
39	0x3f53ae49	0.82687813
40	0xbfe50e27	-1.7894944
41	0x3f6a92ad	0.9163006
42	0x404515e8	3.079462
43	0xc0799ead	-3.9003098
44	0x40430a7f	3.0475156
45	0x409aa070	4.8320847
46	0xc0ee9f99	-7.456982
47	0x3cd7fbbc	0.026365153
48	0xc0a9b779	-5.3036466
49	0xc018a0b4	-2.3848085
50	0xbff4cf93	-1.9125847
51	0x405576a4	3.3353662
52	0x409ee894	4.965891
53	0xbd8eec66	-0.06978683
54	0xc0abc701	-5.3680425
55	0xbd257ca5	-0.040402073
56	0xc038290b	-2.877505
57	0x3c878985	0.016545067
58	0x3e145009	0.14483656
59	0xbe68ca0e	-0.22733328
60	0x3e840112	0.25782067
61	0xbe14a1b9	-0.14514817
62	0x3ed8535d	0.422511
63	0x3e1df7b6	0.15426525
64	0x406934b5	3.643842
65	0xc0391fbe	-2.8925624
66	0x3f203c33	0.62591857
67	0xbfdec93d	-1.7405163
68	0xc10f975e	-8.974455
69	0x40d2a312	6.582406
70	0x3fe0af31	1.7553464
71	0x3f06a013	0.52588004
72	0x3e899721	0.26873115
73	0x3f75ba1b	0.959871
74	0xbd0b81ca	-0.034059323
75	0x3f4bc956	0.7960409
76	0xc0d15156	-6.5411787
77	0xc039efe1	-2.905266
78	0xc067b7c0	-3.6205902
79	0xbf87224b	-1.055734
80	0x3f4ee5f4	0.8081963
81	0xbc1c7f7d	-0.00955188
82	0xbfdf53a3	-1.7447399
83	0xbe350e0e	-0.17681143
84	0x3b9260cb	0.004467105
85	0xbefa7c62	-0.48923022
86	0xc06123bb	-3.5178058
87	0x3cf6f467	0.030145837
88	0xbb6be6db	-0.0035995755
89	0x40ce2dbb	6.4430823
90	0xbf66f2a5	-0.90213996
91	0xbb917e62	-0.004440115
92	0x409c4890	4.8838577
93	0xc11c86b9	-9.782891
94	0x40627e1d	3.5389473
95	0x4041aaca	3.0260491
96	0xbffb71ae	-1.9644067
97	0x3ffbd67e	1.9674833
98	0x3fc685e9	1.5509616
99	0xbf70688d	-0.9390953
100	0xbefea1f8	-0.49732947
101	0xc0427186	-3.038179
102	0x40e59004	7.17383
103	0x3da563bf	0.08075666
104	0xbd740995	-0.05957945
105	0xc0029e9a	-2.0409303
106	0xbfa44fd0	-1.2836857
107	0x40ade518	5.4342155
108	0xbb8d93ad	-0.004320583
109	0x4021ddc5	2.5291607
110	0x40958930	4.6729965
111	0x3f6fd292	0.9368068
112	0x3ba27975	0.0049583265
113	0x3e8acab8	0.27107787
114	0xbde0f507	-0.10984235
115	0xbea1d85f	-0.3161039
116	0xbd8994a1	-0.06717802
117	0x40297d63	2.648278
118	0xbcdaf702	-0.02672911
119	0xbd33fd79	-0.043942902
120	0x41176c72	9.463976
121	0x40025815	2.036626
122	0x3dae10e3	0.08499315
123	0xbcdcd2cd	-0.026955986
124	0x3f9d6e95	1.2299372
125	0xbfa4f950	-1.2888584
126	0xc0074ee9	-2.1141913
127	0x3d8844b0	0.06653726
128	0x3d6e078e	0.058112673
129	0xc0b62f05	-5.6932397
130	0x3f5e6296	0.8686918
131	0x3f6fe365	0.9370635
132	0xc0c5bce9	-6.1793103
133	0x3fdc4a1d	1.7210118
134	0xc19a6b40	-19.302368
135	0xbf31a0a6	-0.69385755
136	0xc0ba3a83	-5.8196425
137	0x4011bdb9	2.2772048
138	0xc0074e67	-2.1141603
139	0xc144290a	-12.260019
140	0x40d3d280	6.619446
141	0x3f7546a5	0.9581092
142	0x3dc38703	0.09547236
143	0x4006f7be	2.108871
144	0xc126210f	-10.383071
145	0xc081c1df	-4.054916
146	0xbec5e09a	-0.3864792
147	0x402fdbbe	2.747787
148	0x3f7b2436	0.9810213
149	0xbf31d618	-0.69467306
150	0x406a3b36	3.659864
151	0x411816b2	9.505541
152	0xbf6201f9	-0.8828426
153	0x3fa9757e	1.3238981
154	0xc08ef0f7	-4.4669147
155	0x3fe5a2c8	1.7940302
156	0xc0a0d184	-5.0255756
157	0x3da87697	0.08225744
158	0x40ccb487	6.397037
159	0xc13df89b	-11.873195
160	0x3cba8431	0.022768112
161	0xc0a04520	-5.008438
162	0x3d401cd0	0.046902478
163	0x3d6f4cfa	0.05842302
164	0xbf50b568	-0.81526804
165	0x3db2725b	0.08713218
166	0xc06eb2f1	-3.7296717
167	0x40becc3e	5.962432
168	0xc0fc215c	-7.879072
169	0x3fa10106	1.2578437
170	0xc104b462	-8.294039
171	0x3db36fbe	0.087615475
172	0xc0842272	-4.1292048
173	0xc0a8c034	-5.2734623
174	0x3cac9d0b	0.021070978
175	0xbf5e1b76	-0.8676065
176	0x3ed52f30	0.41637564
177	0x3fcad2a8	1.5845537
178	0x4098f73a	4.780179
179	0xbed6d1a8	-0.4195683
180	0xbf188fda	-0.595945
181	0xc0cb680a	-6.35645
182	0x40091aa2	2.1422505
183	0xc06bcab6	-3.6842475
184	0xc0a27785	-5.07709
185	0x3fc090af	1.5044154
186	0xc0077deb	-2.1170604
187	0xc08756e7	-4.229358
188	0xc0e3aaf5	-7.114619
189	0xc07a5ce8	-3.9119205
190	0x404d8bfb	3.2116687
191	0x3f5b326d	0.8562382
192	0xc0bcc445	-5.8989587
193	0x410b9194	8.723042
194	0x40234f25	2.5517056
195	0x3e8c8355	0.27443948
196	0xbe5415f8	-0.20711505
197	0xc11a2ad6	-9.635458
198	0x3f145c97	0.5795378
199	0x405e6c45	3.4753582
200	0x4048844e	3.1330752
201	0x3f1ca07b	0.61182374
202	0x4039221f	2.8927076
203	0xbe05296a	-0.1300408
204	0xc0fbcf65	-7.8690667
205	0xbe0c6f6f	-0.13714384
206	0xbf371f02	-0.7153169
207	0x3faaef72	1.3354323
208	0xc198dd45	-19.108042
209	0x3e3c3742	0.18380454
210	0xc09e97c4	-4.956026
211	0x3f76eb8b	0.9645316
212	0x40fd0042	7.9062815
213	0x40833bf2	4.1010675
214	0x3fec0133	1.8437866
215	0x3e9259fa	0.28584272
216	0x3c7edd15	0.01555564
217	0x406e6439	3.724867
218	0x40ff4361	7.976975
219	0xbf93c4a8	-1.154439
220	0xc04ca99d	-3.1978524
221	0x4063a20c	3.5567656
222	0xc03135f2	-2.7689176
223	0xc188e283	-17.110601
224	0x40be3ffd	5.945311
225	0x3dbf88c6	0.09352259
226	0x41a5b83c	20.714958
227	0xc03cf0d0	-2.952198
228	0xc0251a4b	-2.5797298
229	0x40965a6f	4.6985393
230	0x40c06dfb	6.0134254
231	0x408958d5	4.2920938
232	0x3e98bdd7	0.29832336
233	0xc1733b04	-15.201908
234	0x3fbcf1b1	1.4761258
235	0x40f2b888	7.585026
236	0xbd453a78	-0.048151463
237	0xc03bc2cb	-2.9337642
238	0xc04e03fa	-3.2189927
239	0x3fba7e8a	1.4569867
240	0x400fecae	2.2488208
241	0x40133236	2.2999396
242	0x3ff461da	1.9092362
243	0x3f4b5930	0.79432964
244	0x400d39d5	2.2066548
245	0xc106aaf5	-8.416738
246	0x3f9a1613	1.2037987
247	0x3e0d98be	0.13827798
248	0x409a568d	4.8230653
249	0xc050dbe9	-3.2634223
250	0x40a541de	5.1642904
251	0x3fff7138	1.9956427
252	0xbfead2c3	-1.8345569
253	0x3cfb72d4	0.030694403
254	0xbfa29efb	-1.2704767
255	0x40c60f40	6.1893616

xi_featurizer_bias f4 [50, 100]
0	0x3df11777	0.11772054
1	0x3e08b61f	0.13350724
2	0xbe0e19a3	-0.13876967
3	0xbea1b611	-0.31584218
4	0x3e88159f	0.26578996
5	0xbd39359f	-0.045217153
6	0xbda3c429	-0.07996399
7	0xbe567689	-0.20943655
8	0x3dfcdd81	0.12346936
9	0x3d166074	0.03671308
10	0x3d2c0e19	0.042005632
11	0xbe9434c7	-0.28946516
12	0xbd4ac055	-0.04949983
13	0x3d198f90	0.037490427
14	0xbe26caf7	-0.16288362
15	0xbdf1db6e	-0.11809431
16	0xbd3b6acc	-0.045756146
17	0x3d2938bc	0.04131387
18	0xbe8720c8	-0.26392198
19	0x3e82849f	0.25491807
20	0x3e007565	0.12544782
21	0x3e9d14e3	0.30679998
22	0x3d9cadc0	0.07650328
23	0x3cfaf57a	0.03063463
24	0x3e533b3f	0.2062807
25	0xbe87f966	-0.26557463
26	0x3c0b447c	0.008500215
27	0xbd46de45	-0.048551816
28	0x3e3eec43	0.18644814
29	0x3e12a4cb	0.14320676
30	0x3d3dad8d	0.04630809
31	0x3de51ba6	0.11186914
32	0xbcf9136c	-0.030404769
33	0x3e0125da	0.12612095
34	0x3bcd64ba	0.006268111
35	0xbda18711	-0.0788709
36	0xbd89cb52	-0.067282334
37	0xbd6b6ba8	-0.057475716
38	0xbdaa9656	-0.083294556
39	0x3dbf1562	0.0933025
40	0xbec5b0a6	-0.38611335
41	0x3d1e2764	0.038611785
42	0xbe17b77e	-0.1481609
43	0xbe8b860d	-0.2725071
44	0x3e97577f	0.29558942
45	0xbda12dc7	-0.078700595
46	0xbe2d8204	-0.16944128
47	0x3c0ee870	0.00872241
48	0x3e88c3d5	0.26711908
49	0xbeaea7fd	-0.3411254
50	0xbd8d0f0c	-0.068876356
51	0xbd295925	-0.04134478
52	0x3cacad84	0.021078832
53	0x3e364550	0.17799878
54	0x3c5b8b2f	0.013399883
55	0x3d91dba2	0.0712197
56	0x3e1b9c69	0.15196384
57	0xbe2ac56b	-0.16676871
58	0xbdaa00b6	-0.08300917
59	0x3d87db94	0.06633678
60	0xbd88fcaa	-0.06688817
61	0xbd0ba7a6	-0.03409543
62	0xbe13c3ee	-0.1443021
63	0xbe33fd6f	-0.17577146
64	0xbe28616c	-0.16443413
65	0xbd522132	-0.05130119
66	0xbd78b83c	-0.060722575
67	0x3db26989	0.087115355
68	0xbce5d4b3	-0.028055524
69	0x3e3f4e87	0.186823
70	0xbb82c71c	-0.003991021
71	0x3df0044d	0.1171957
72	0xbd577b0b	-0.052607577
73	0xbe14b75b	-0.1452307
74	0x3e885dc1	0.2663403
75	0xbce4cc0b	-0.027929327
76	0x3d5b0c92	0.053478785
77	0xbe49b27a	-0.1969699
78	0x3cb96d2b	0.022635063
79	0xbe953acb	-0.29146418
80	0xbf0bd46d	-0.5462101
81	0x3eacaa36	0.3372361
82	0x3cec01a8	0.028809384
83	0x3dbfab9a	0.09358902
84	0xbecd9466	-0.40152282
85	0x3d8134d2	0.06308903
86	0xbe38c3f1	-0.18043496
87	0x3d9880ff	0.07446479
88	0x3d88e1c0	0.066836834
89	0x3d77e58d	0.06052165
90	0xbe416643	-0.18886666
91	0x3dbe1e11	0.092830785
92	0x3e2caec2	0.1686354
93	0x3bc03994	0.005866239
94	0x3d8d48dc	0.068986624
95	0xbd578af9	-0.05262277
96	0x3d2400e0	0.040039897
97	0x3d007ea3	0.03137077
98	0x3e3e463c	0.1858148
99	0x3e50f481	0.20405771
100	0x3cf43bf1	0.029813739
101	0x3dba2c95	0.090905346
102	0x3ce5ead8	0.028066084
103	0xbcd171c7	-0.025566949
104	0x3dca23bd	0.09870098
105	0x3ba32316	0.004978548
106	0xbd83825f	-0.06421351
107	0xbe36c478	-0.17848384
108	0xbd339be3	-0.043849837
109	0x3d45be98	0.048277467
110	0xbd68a379	-0.056796525
111	0x3ccfcad0	0.025365263
112	0x3e2c7469	0.16841282
113	0x3e2d019b	0.16895144
114	0x3b40ec37	0.002943767
115	0xbd02befc	-0.03192042
116	0xbc2ee829	-0.0106754685
117	0x3ed3acb6	0.41342705
118	0x3de0aca0	0.109704256
119	0xbd80188f	-0.06254684
120	0xbdf3f292	-0.11911501
121	0xbd12fede	-0.03588759
122	0xbe003480	-0.12520027
123	0xbe2893f8	-0.16462696
124	0xbd30ec54	-0.04319413
125	0xbe5e05ed	-0.21681948
126	0xbedf9cea	-0.43674403
127	0x3e55417c	0.20825762
128	0x3d552f97	0.05204734
129	0x3d8327aa	0.0640405
130	0x3eaa190f	0.33222243
131	0xbe2e363e	-0.17012879
132	0x3c1db6cd	0.009626103
133	0xbe62f5ee	-0.22164127
134	0xbe1b8594	-0.15187675
135	0xbef3e8f8	-0.4763868
136	0xbe4831bc	-0.19550222
137	0xbe123fac	-0.14282101
138	0xbef14479	-0.47122553
139	0xbe17e0db	-0.1483187
140	0xbd6f9ff8	-0.058502167
141	0x3bc544f3	0.0060201823
142	0xbd0e7f6a	-0.03478948
143	0xbe378e81	-0.17925455
144	0x3d1b72e6	0.037951373
145	0xbba23e74	-0.0049512926
146	0xbe06e338	-0.13172615
147	0xbd86e68c	-0.06586942
148	0xbd5ce72f	-0.05393141
149	0xbe64e8a1	-0.22354366
150	0x3e478325	0.19483621
151	0xbd3a8562	-0.04553736
152	0xbe4a4d6d	-0.19756098
153	0xbdb51461	-0.088417776
154	0xbe089875	-0.13339408
155	0xbdf6d4cb	-0.12052306
156	0xbe6894ca	-0.22713009
157	0x3dd7f825	0.10545377
158	0x3e682a9b	0.22672503
159	0x3d355da8	0.04427877
160	0x3c37b910	0.011213556
161	0x3e1e9617	0.15486942
162	0x3d0adb96	0.03390082
163	0xbe17b398	-0.14814603
164	0x3e250631	0.16115643
165	0xbee0c313	-0.4389883
166	0x3e3ef76a	0.18649068
167	0x3e854508	0.2602923
168	0xbddb5d58	-0.10711163
169	0x3e7a3438	0.24433982
170	0xbdc361be	-0.09540127
171	0x3d92175d	0.071333624
172	0x3d84efab	0.064910255
173	0xbe45374a	-0.19259372
174	0x3dc92322	0.09821154
175	0x3d5d7434	0.054065898
176	0x3e684f10	0.2268641
177	0x3dd91871	0.10600365
178	0x3e9e58a5	0.30927005
179	0xbd325116	-0.04353436
180	0xbf2e1c99	-0.68012387
181	0x3e1d218b	0.15344827
182	0xbe25abdc	-0.1617884
183	0xbd56c338	-0.05243227
184	0xbe2c2469	-0.16810764
185	0x3e337dfe	0.17528531
186	0x3c19b640	0.009381831
187	0xbe3d9efd	-0.1851768
188	0x3cd0da32	0.025494669
189	0x3dd1cdb7	0.10244315
190	0xbd5bcbba	-0.053661086
191	0x3f1214e0	0.570631
192	0x3c9bf813	0.01903919
193	0x3e41b1d7	0.18915497
194	0x3eb394a3	0.35074338
195	0x3c9ab7d8	0.018886492
196	0x3e54243e	0.2071695
197	0xbd701a70	-0.058618963
198	0x3c8e65ab	0.017382463
199	0xbe7ef28b	-0.2489721
200	0x3d914874	0.070938975
201	0xbd97a568	-0.074045956
202	0x3ebff355	0.37490335
203	0x3dc860e9	0.09784109
204	0x3e91d6e9	0.28484276
205	0xbe1e8df7	-0.15483843
206	0xbeae1e79	-0.34007624
207	0xbe10ac1b	-0.14128153
208	0xbd8e7a29	-0.06956894
209	0xbdabd25a	-0.08389731
210	0x3d2ff2d4	0.04295619
211	0xbe29af79	-0.16570844
212	0x3e514d5e	0.2043967
213	0x3d364663	0.04450072
214	0xbe8a0bc4	-0.269621
215	0xbe09a83d	-0.13443084
216	0x3dd04a86	0.10170464
217	0x3dfd4d72	0.12368287
218	0xbd537375	-0.05162378
219	0xbe24bcba	-0.16087618
220	0xbe96ecfc	-0.2947768
221	0xbdf4c6ff	-0.11952018
222	0x3b373851	0.0027957151
223	0x3de213d2	0.11038937
224	0xbeab178b	-0.334164
225	0xbc998d69	-0.018744187
226	0xbd2682ea	-0.040652193
227	0xbc481e42	-0.012214245
228	0xbeabfce1	-0.3359137
229	0xbd69c919	-0.057076547
230	0xbe1a9aac	-0.15098065
231	0x3e50fd0c	0.2040903
232	0x3d83cead	0.06435905
233	0x3df38a6c	0.11891636
234	0x3e623fa2	0.22094586
235	0x3e351962	0.17685464
236	0x3d1bec82	0.03806735
237	0xbe1f365f	-0.15548085
238	0xbe977659	-0.2958248
239	0x3e8825cc	0.26591337
240	0x3e73079d	0.23733373
241	0x3d9da360	0.07697177
242	0x3e258309	0.16163267
243	0x3ea33066	0.31872863
244	0x3e156542	0.14589408
245	0xbcc12f48	-0.023582116
246	0xbe31620a	-0.17322555
247	0x3e694524	0.22780281
248	0xbe009998	-0.12558591
249	0xbd080e18	-0.033216566
250	0x3d91de7f	0.07122516
251	0xbe05e5b6	-0.13075909
252	0xbefad9b3	-0.48994216
253	0x3d2441a9	0.04010168
254	0xbe28ca38	-0.1648339
255	0x3e1cefa5	0.15325792

xs_featurizer_weight f4 [50, 100]
0	0xc0cf29e1	-6.473862
1	0x40266b49	2.6002982
2	0x3f02b3e0	0.5105572
3	0x3fa1c73b	1.2638925
4	0x4086ea4e	4.2161016
5	0x40958937	4.673
6	0x40a7b5db	5.240949
7	0xc03c2c9a	-2.9402223
8	0x40a00395	5.0004373
9	0x4004b2e5	2.0734189
10	0xbf601a45	-0.87540084
11	0xc042512c	-3.0362043
12	0xbf89c745	-1.0763937
13	0x4119561c	9.583523
14	0xbfb54039	-1.4160224
15	0x40038efa	2.0556016
16	0xc08caec1	-4.3963323
17	0x404efe92	3.2342877
18	0x4074b8c0	3.8237762
19	0xbf7e965b	-0.99448174
20	0x3ffb43b7	1.963004
21	0x40a283d0	5.0785904
22	0xc0167124	-2.3506556
23	0x3fa7d890	1.3112965
24	0xc002dced	-2.0447342
25	0xc03b8c64	-2.9304438
26	0x3efb2b7d	0.49056616
27	0x4016b7a8	2.3549595
28	0x403e17c0	2.9701996
29	0x40292309	2.6427634
30	0x40265916	2.5991874
31	0x4015f1ec	2.3428907
32	0xc0fa0fa1	-7.814408
33	0xc0992649	-4.7859235
34	0xbca73abf	-0.020413755
35	0xbf864c91	-1.0492116
36	0xc0836df8	-4.107174
37	0x3f41626c	0.75540805
38	0xc08356a8	-4.104328
39	0x3fa0697c	1.2532191
40	0x3dafce92	0.08584322
41	0xbe352a3c	-0.17691892
42	0x40514a5d	3.2701638
43	0x409d8abb	4.923185
44	0x3e96ec82	0.29477316
45	0x408f3999	4.475781
46	0x40a41967	5.128101
47	0x4004f5c1	2.0774996
48	0x400567b6	2.084455
49	0x40f6762d	7.7019258
50	0xc0908986	-4.5167875
51	0xbf98348a	-1.1891034
52	0x40473490	3.1125832
53	0xc09a815b	-4.8282905
54	0xc053208d	-3.2988617
55	0x40c56d18	6.169567
56	0x3f375b50	0.71623707
57	0x3e2398c7	0.15976249
58	0xbf4aef8b	-0.79271764
59	0x3f8881ec	1.0664649
60	0x3f9b7d75	1.2147661
61	0x40ff772e	7.9832983
62	0xc0858574	-4.1725407
63	0x3fb7c4bd	1.4356915
64	0x3f8e536e	1.1119211
65	0x400b174d	2.1732972
66	0xbe3e2802	-0.1856995
67	0x40a800e3	5.2501082
68	0xc00cb7c8	-2.198717
69	0x4086b4f0	4.209587
70	0xbf8f03cf	-1.1173037
71	0x3f876fe3	1.058102
72	0x40914a0b	4.5402884
73	0xc050f8c6	-3.265184
74	0xbee5a741	-0.44854167
75	0x3f0a4db7	0.54024833
76	0x3eba5940	0.36396217
77	0x3e3b4516	0.18288073
78	0x4095b8e8	4.6788216
79	0x3f99c2b8	1.2012548
80	0x4048a0b9	3.1348097
81	0xc0045e80	-2.0682678
82	0x3ff9a87a	1.950454
83	0xc0182f1c	-2.3778753
84	0xc04a459b	-3.1604984
85	0xc0a3863f	-5.1101375
86	0x3f531f19	0.82469326
87	0xc002f071	-2.0459254
88	0xbe8e6299	-0.278096
89	0xc0758757	-3.8363855
90	0x406bffd9	3.6874907
91	0xc0ba19db	-5.815656
92	0xc0afe49f	-5.496658
93	0xc05e76e7	-3.4760072
94	0x40589a79	3.3844283
95	0x40a336fe	5.100463
96	0x40cb3165	6.3497796
97	0x40155099	2.3330443
98	0xc0691b7f	-3.6423032
99	0xbf862582	-1.0480196
100	0xc0221f19	-2.533148
101	0x40077a6c	2.116847
102	0xc09538fe	-4.663207
103	0x3fc04859	1.5022079
104	0x411de456	9.868246
105	0x4096485e	4.696334
106	0x3ee52aec	0.4475931
107	0x3d462f90	0.048385203
108	0x4106a018	8.414085
109	0x3f1895ed	0.5960377
110	0x407e7574	3.9759188
111	0xbdbe5ab3	-0.09294643
112	0xc0242f49	-2.565386
113	0x403e0a72	2.9693875
114	0x3f88c414	1.0684838
115	0x3fd41110	1.6567707
116	0x3ed9886f	0.42486903
117	0x3faf188a	1.3679364
118	0xbf260a2d	-0.64859277
119	0x40143d55	2.3162434
120	0x4035988d	2.837436
121	0xc0959674	-4.674616
122	0xbfaa00b8	-1.3281469
123	0x408b5e1e	4.355239
124	0x3fe8d1b4	1.8188996
125	0xbf96f0b9	-1.1792213
126	0xc08f761a	-4.4831667
127	0x3fcbc1fd	1.5918576
128	0xc0b8f72d	-5.780173
129	0x40237ff4	2.5546846
130	0x3fecca02	1.8499148
131	0xbf211de0	-0.6293621
132	0x40fa61c9	7.8244367
133	0xbff7dc04	-1.9364018
134	0xc0885640	-4.2605286
135	0xbfc27685	-1.5192419
136	0xc019e509	-2.4046042
137	0x409342d3	4.6019073
138	0xc02f766f	-2.7416036
139	0xbf9dc19b	-1.2324709
140	0xc08e3796	-4.4442854
141	0xbeb68576	-0.35648698
142	0x415a44fe	13.641844
143	0xc0bbfbff	-5.8745112
144	0x3fc098ff	1.5046691
145	0x40e0f6a0	7.0301056
146	0x411118b5	9.068532
147	0x40aa1ddd	5.3161454
148	0x3d871895	0.065964855
149	0xc024fcd0	-2.5779305
150	0xc09b77dd	-4.8583817
151	0xc0cf799f	-6.4835963
152	0x406caeac	3.6981611
153	0xbf63e4d5	-0.89021045
154	0x4075cda1	3.8406756
155	0xc03e2bee	-2.9714313
156	0x3f4289a8	0.75991297
157	0x3faeed04	1.3666081
158	0x40b9b927	5.8038516
159	0x40e860f0	7.261833
160	0xbf834aad	-1.0257164
161	0x40f78e73	7.736139
162	0x402b082f	2.6723745
163	0xc04a3815	-3.159673
164	0x405ccb39	3.4499037
165	0x40926cf4	4.5758
166	0x40198f5f	2.3993757
167	0xbffe3f0f	-1.9862994
168	0x3f19b70e	0.60044944
169	0xbf2716b7	-0.65269035
170	0x407867a4	3.8813257
171	0xbe4b168e	-0.19832823
172	0xc0640651	-3.5628855
173	0xbf2bc56a	-0.67098105
174	0x40ee67c7	7.450168
175	0xc057d882	-3.3725896
176	0x40254eb3	2.5829284
177	0xc092f8ed	-4.5928864
178	0x40d6e3ea	6.7153215
179	0xc134ab9f	-11.2919
180	0x3ffe188c	1.9851241
181	0xc00a97b8	-2.1655102
182	0xc042b27b	-3.0421436
183	0x400c62e3	2.1935356
184	0xc021641a	-2.5217347
185	0x3f915a1e	1.1355627
186	0xbf449ba7	-0.76800007
187	0xc103db9c	-8.241116
188	0xc01dfa9f	-2.4684217
189	0xc04d11d4	-3.2042131
190	0x40ca3ba4	6.3197803
191	0xbebf9466	-0.37417907
192	0xc13cc497	-11.797996
193	0x3f0971b6	0.53689134
194	0xbf6f385e	-0.93445385
195	0xbdadd9ce	-0.084888086
196	0x40e933e1	7.287583
197	0x40a973b1	5.2953725
198	0xbfea934c	-1.8326201
199	0xc0a2b3c1	-5.0844426
200	0x3f44764c	0.76743007
201	0xbfbc5bd0	-1.4715519
202	0x40ff91b2	7.986535
203	0xbff1ee6a	-1.8900883
204	0x41000af5	8.002675
205	0xc095fb04	-4.6868916
206	0x40b569af	5.669151
207	0xc08d87f0	-4.422844
208	0xc00a8cdc	-2.1648474
209	0x40eeac78	7.4585533
210	0x402bbbb1	2.6833308
211	0xbeb81d00	-0.35959625
212	0xbe9dfd24	-0.30857193
213	0x3f9ff7f2	1.2497542
214	0x408a890d	4.32923
215	0x3f28017a	0.65627253
216	0xc0a9663f	-5.293731
217	0x4019b344	2.4015665
218	0x400d0150	2.203205
219	0xc08745a0	-4.227249
220	0x3fdf57db	1.7448686
221	0xc08ff94a	-4.499181
222	0x40dc07f2	6.87597
223	0x3f21e768	0.6324372
224	0xbe1916af	-0.1495006
225	0x401f0cef	2.4851644
226	0x40d4f73d	6.6551805
227	0x40ae2a74	5.4426823
228	0xc09b99ca	-4.862523
229	0xc095c378	-4.680111
230	0xc043ce6d	-3.0594742
231	0x410c9db0	8.788498
232	0x40846e40	4.1384583
233	0x4063e543	3.560868
234	0xbffdd515	-1.9830652
235	0xc0648856	-3.5708213
236	0xc0271b3d	-2.6110375
237	0x3f171114	0.59010434
238	0xc0136b6b	-2.3034313
239	0xc0668383	-3.6017768
240	0xbf1967cf	-0.59924024
241	0x40854f06	4.1658964
242	0xbf320d52	-0.69551575
243	0x407bc2fb	3.9337757
244	0xc0576c6e	-3.365993
245	0xc0a14601	-5.0397954
246	0x403ee54c	2.9827452
247	0xbfc1755d	-1.5113941
248	0x3fc5e735	1.5461184
249	0xc0b636b2	-5.6941767
250	0x3fe2a963	1.7707943
251	0xbf714fdb	-0.94262475
252	0xbd8849a4	-0.06654671
253	0xc02549b3	-2.5826232
254	0xc0ae6da5	-5.4508843
255	0x403d9e41	2.962784

xs_featurizer_bias f4 [50, 100]
0	0x4094cda5	4.650103
1	0xc0425446	-3.0363936
2	0x3fb64ee2	1.4242823
3	0x3f1d3539	0.61409336
4	0xc027f687	-2.6244218
5	0xc02d9519	-2.7122252
6	0xc099c80d	-4.8056703
7	0x40241182	2.5635686
8	0xc0844600	-4.133545
9	0xbf880e8e	-1.0629442
10	0xc061f947	-3.5308397
11	0x3e6e9137	0.23297583
12	0xbe5ccb73	-0.21561985
13	0xc0800b10	-4.0013504
14	0x3f3b6812	0.73205674
15	0xc06402b9	-3.5626662
16	0x3f4054a6	0.75129163
17	0x404c8a96	3.1959586
18	0xbef46665	-0.4773437
19	0x406d3ea3	3.706948
20	0x40103fce	2.2538943
21	0xc02037f7	-2.5034158
22	0xbf23700e	-0.63842857
23	0xc0521ceb	-3.283015
24	0x403f932a	2.9933572
25	0x3ffaba13	1.9588035
26	0x40691ff2	3.6425748
27	0xc0ae069e	-5.438308
28	0xbf3260b9	-0.6967884
29	0x3f8d8644	1.10566
30	0xc03d2a2f	-2.9556997
31	0xbe8efa54	-0.2792536
32	0x40cf4950	6.4776993
33	0xc07a9682	-3.9154363
34	0x402ad9a7	2.6695344
35	0xbf7b0ff8	-0.9807124
36	0x3f90116e	1.1255319
37	0xbf087fe0	-0.5332012
38	0xc031943f	-2.7746732
39	0x3fca045e	1.5782583
40	0xc072822b	-3.7891948
41	0x404738dd	3.1128457
42	0xc02ea92a	-2.729075
43	0xbef269e2	-0.47346407
44	0xbf225f24	-0.63426423
45	0xc0552069	-3.3301032
46	0x3e7f07d5	0.24905331
47	0xbfdcf60a	-1.7262585
48	0x409208cf	4.5635753
49	0xc0a25e6e	-5.074027
50	0x405ba634	3.4320192
51	0x3e2ffbfd	0.1718597
52	0xbfcf5a73	-1.6199478
53	0x408bd458	4.369671
54	0x40401752	3.0014234
55	0x3ea2d732	0.31804806
56	0xc085a92a	-4.1769
57	0xbf14c02d	-0.58105737
58	0xc01ff991	-2.4996073
59	0xc0554230	-3.3321648
60	0x3cfad3dc	0.0306186
61	0x3f1e801f	0.6191425
62	0x3f4facf0	0.81123257
63	0x3e97849b	0.29593357
64	0xc0264915	-2.5982106
65	0xc01d0df3	-2.4539764
66	0x3fd8cb1d	1.6936985
67	0xc00ed89f	-2.2319715
68	0xbfd69a71	-1.6765882
69	0xc03b495c	-2.9263525
70	0x3fdbc744	1.7170186
71	0xbe11e95c	-0.14249176
72	0xbdfca729	-0.12336571
73	0x3faf558f	1.3697985
74	0xbf8a793c	-1.0818248
75	0xbf8941a9	-1.0723163
76	0x3f946eb3	1.1596283
77	0xbf73b22a	-0.9519373
78	0xc03467b7	-2.8188303
79	0xbfb73808	-1.4313974
80	0xc0174dc6	-2.364122
81	0xbf3dffb3	-0.7421829
82	0xbfc6cb50	-1.5530796
83	0xbf1049a9	-0.56362396
84	0x403a9f5d	2.9159768
85	0x4058694c	3.3814268
86	0x3fc7d46d	1.5611702
87	0xbe95d7d8	-0.29266238
88	0x3ef148fa	0.4712599
89	0x401c4c04	2.4421396
90	0xc03d9c90	-2.9626808
91	0x401c2a09	2.4400656
92	0xbe7cdc0e	-0.24693319
93	0xc0282de5	-2.6278012
94	0xbe95abe8	-0.29232717
95	0x3f97ba34	1.18537
96	0xc043be14	-3.0584764
97	0xbf7e8968	-0.99428415
98	0x403c11e8	2.938593
99	0x3fa64016	1.2988307
100	0xbf114576	-0.56746614
101	0xc000a99b	-2.010352
102	0x3f3fbaea	0.74894583
103	0xbf34f876	-0.7069162
104	0x3f9d514e	1.2290437
105	0xbf6780e9	-0.90431076
106	0x40143e73	2.3163116
107	0xbf4beb78	-0.7965617
108	0xbf3f16d0	-0.74644184
109	0x3f825f39	1.018531
110	0x3fad5f3a	1.3544686
111	0x3f748e27	0.9552941
112	0x3fcc2b34	1.5950685
113	0x3f4e8233	0.8066742
114	0xc0481720	-3.1264114
115	0x4040cebd	3.0126183
116	0xc0317825	-2.772958
117	0x3fb71aa3	1.4305004
118	0xbee18e31	-0.44053796
119	0xbffce68d	-1.9757859
120	0xc0b56ec3	-5.6697707
121	0x407718e6	3.8608947
122	0x3e86dda7	0.26340982
123	0x3f8afcf0	1.085844
124	0x3fe99832	1.8249571
125	0x3fdfacdb	1.7474626
126	0x3fb930bb	1.4467996
127	0x3f8d48a2	1.1037791
128	0xc0827679	-4.076962
129	0x3f277a2d	0.654208
130	0xbf605692	-0.87632096
131	0x3fcb1393	1.5865349
132	0x40134931	2.3013422
133	0xbc95e037	-0.01829539
134	0x3ec3a9f5	0.38215604
135	0xbed096f1	-0.4074016
136	0x40554dab	3.3328655
137	0x3f89e69d	1.0773503
138	0xbfcd1318	-1.6021452
139	0xbfb09fc5	-1.3798758
140	0xc058191f	-3.3765333
141	0x40941292	4.627267
142	0x40073ca0	2.1130753
143	0x3e453a7e	0.19260594
144	0x4045de91	3.0917094
145	0xc05fd02e	-3.4970813
146	0x4037b2be	2.8702846
147	0x3fa741a0	1.3066902
148	0x3fee77e2	1.8630335
149	0x4015048a	2.328402
150	0xc07738d5	-3.8628438
151	0x405c34dc	3.4407263
152	0xc03df268	-2.9679203
153	0xbf89eef2	-1.0776045
154	0xc0061121	-2.0947955
155	0xc01d905f	-2.4619367
156	0xc03b57d8	-2.9272366
157	0x4022f6d5	2.5463154
158	0x4077b4a9	3.8704016
159	0xbf18ad5c	-0.59639525
160	0xbe123c79	-0.14280881
161	0x3fde1b92	1.7352164
162	0x40078ced	2.1179764
163	0xbfb49294	-1.4107232
164	0xbe6b17f7	-0.2295836
165	0x3f168fb9	0.58813053
166	0xbeee1136	-0.46497506
167	0x40dc5d3b	6.8863807
168	0xc05156d3	-3.2709243
169	0xbfe04230	-1.7520199
170	0xbf9671a3	-1.1753429
171	0xbc9f710a	-0.01946308
172	0xbf1edc87	-0.6205525
173	0xc0035e9a	-2.052649
174	0xc030ad05	-2.7605603
175	0xbfb3abd7	-1.4036816
176	0xbfcda853	-1.6066993
177	0x3f5fdb6a	0.87444174
178	0x3e4f3465	0.2023483
179	0xbfdb94dc	-1.7154803
180	0x3fa8e78f	1.3195666
181	0xc02f6c33	-2.740979
182	0x3fce98a0	1.6140327
183	0x3cc2c98e	0.02377775
184	0xbd9cc15c	-0.07654068
185	0xbef60eb4	-0.48058093
186	0xbe37fa46	-0.17966565
187	0xbe3f4fe5	-0.18682821
188	0x404794cd	3.118457
189	0x3fd9d4d6	1.7018077
190	0x407d12df	3.9542768
191	0xbeca2901	-0.39484408
192	0x3fc7c64f	1.5607394
193	0xbdcde12b	-0.10052713
194	0xbf105295	-0.5637601
195	0xc06e552d	-3.7239487
196	0xbf1cb503	-0.612137
197	0xbedff4f6	-0.43741578
198	0xbfc3ca16	-1.5296047
199	0xbf9e4dfb	-1.2367548
200	0x3fff931c	1.9966769
201	0x4043ee0f	3.061405
202	0x3fe66746	1.8000267
203	0x3f253f26	0.6454948
204	0xc02c4a1f	-2.692024
205	0x3f8e4c2e	1.1116998
206	0x4062b279	3.542143
207	0xbf0b6e49	-0.54465157
208	0xbe0f6b0d	-0.1400568
209	0xbf45ba36	-0.7723726
210	0x3fc2a993	1.5208
211	0x3fc46415	1.5343043
212	0xbfbf3005	-1.4936529
213	0xc04b9e3b	-3.1815326
214	0x400bacf3	2.182431
215	0x3f7c5314	0.9856427
216	0x400bbf74	2.1835604
217	0x400640f9	2.0977156
218	0x3fad7ec1	1.3554307
219	0xbf576b16	-0.84147775
220	0xc02fc3a2	-2.7463155
221	0xc00eec81	-2.233185
222	0xc0c46081	-6.1367803
223	0x3e8c5637	0.27409527
224	0x3fc9b612	1.5758688
225	0x402ad4f9	2.6692488
226	0xc0093dec	-2.1444044
227	0xc03c3f49	-2.9413626
228	0xc096b68f	-4.709785
229	0x3f1312b0	0.5745039
230	0x404c2bf1	3.190182
231	0xc0397b6d	-2.8981583
232	0x4013d50f	2.309879
233	0x405a2fc6	3.4091659
234	0xc02b6e9e	-2.6786265
235	0xbef1b5b6	-0.47208947
236	0x4001375e	2.0190043
237	0xbd9aa13c	-0.07550284
238	0xbf94d862	-1.1628535
239	0xbf8f125c	-1.1177478
240	0x40ac9552	5.3932276
241	0xbfcd8254	-1.6055398
242	0x40865988	4.198429
243	0xc0a876a3	-5.264482
244	0x3f177c6b	0.5917422
245	0xbf9b6711	-1.2140828
246	0x3f55315d	0.8327845
247	0x40b50a73	5.6575255
248	0xbf811273	-1.0083755
249	0xbf201576	-0.62532747
250	0x3eb8c543	0.36088
251	0xbf21acd4	-0.6315434
252	0xbfa8b16c	-1.3179145
253	0xc017f849	-2.3745291
254	0x3f4b16f9	0.7933193
255	0x404aa771	3.1664698

xs_featurizer_ibias f4 [50, 100]
0	0xbabcd514	-0.0014406764
1	0xbd9b1d71	-0.07573975
2	0x3e09866f	0.13430189
3	0x3c7fc96e	0.015611989
4	0xbd9a62f4	-0.07538405
5	0x3ce1e2ef	0.02757403
6	0xbcbffbf5	-0.023435572
7	0x3d61f3ad	0.055164028
8	0xbd197611	-0.037466113
9	0xbe11e065	-0.14245756
10	0xbc489e81	-0.0122448215
11	0x3d2cc2ff	0.04217815
12	0x3d0d7ce3	0.03454293
13	0x3acfedb0	0.0015863683
14	0xbcb6c7e5	-0.022312114
15	0xbcb15342	-0.021646146
16	0xbd854dab	-0.065089546
17	0x3c85b08e	0.01631954
18	0x3e2111d2	0.15729454
19	0xbcc59de3	-0.024123138
20	0xbd863122	-0.0655234
21	0x3a92cec1	0.0011200533
22	0xbd470e76	-0.048597775
23	0xbdce9c08	-0.10088354
24	0x3c2f7810	0.0107097775
25	0xbc4431f5	-0.011974801
26	0x3d50eb73	0.051005792
27	0x3d92a968	0.07161218
28	0xbdcf0295	-0.10107914
29	0xbd8e0fb0	-0.06936586
30	0x3d35ab11	0.044352595
31	0xbcfc3186	-0.030785333
32	0x3d093cf0	0.03350538
33	0xbd2acf01	-0.04170132
34	0x3d743eb8	0.059630126
35	0x3b4b202c	0.0030994518
36	0x3b8d2721	0.004307643
37	0xbdac0ad7	-0.08400505
38	0xbe1ded60	-0.15422583
39	0xbe0245c0	-0.1272192
40	0xbc0802fa	-0.008301491
41	0x3caf565f	0.02140349
42	0x3c950a82	0.018193487
43	0x3e127b2b	0.14304797
44	0xbdaa5926	-0.08317785
45	0xbd83c37e	-0.064337716
46	0x3d855ec3	0.06512215
47	0xbd3cc20c	-0.046083495
48	0x3d1b5812	0.037925787
49	0x3dc3cdf1	0.095607646
50	0xbcc20f30	-0.023688883
51	0x3cbca754	0.023029007
52	0xbe0b4d43	-0.13603692
53	0xbb2a7bf3	-0.002601382
54	0x3c88b67c	0.016688578
55	0xbd06e3bd	-0.032932032
56	0xbcc57191	-0.024102004
57	0x3d5f5ca7	0.05453172
58	0x3dc4ca46	0.09608893
59	0xbc03001f	-0.007995634
60	0x3d0da6bf	0.03458285
61	0x3dcf0520	0.101083994
62	0x3ca4bf5e	0.020110782
63	0xbd7f637f	-0.062350746
64	0x3cdedb12	0.02720407
65	0xbe176eaf	-0.14788316
66	0x3d4ef5f8	0.050527543
67	0x3d3647a0	0.0445019
68	0x3d0e43be	0.034732573
69	0xbcfe93a3	-0.031076258
70	0x3d409385	0.047015686
71	0xbc1d8c1d	-0.009615925
72	0x3c832825	0.016010353
73	0xbdbf95e7	-0.093547635
74	0x3d477ab0	0.04870099
75	0x3cf8cd17	0.030371232
76	0xbcd92ee4	-0.026511617
77	0xbd40da38	-0.04708311
78	0x3d8685eb	0.065685116
79	0x3cd0fb78	0.025510535
80	0xbd970cfb	-0.07375523
81	0xbe2e2a1f	-0.17008255
82	0xbc83478f	-0.016025333
83	0xbc761099	-0.015018606
84	0xbdada53a	-0.0847878
85	0x3d24c7c0	0.04022956
86	0x3dd5d897	0.10441702
87	0xbe3b5dd1	-0.18297507
88	0x3d981cfb	0.074274026
89	0xbb56308d	-0.0032682747
90	0xbc24f75d	-0.010068742
91	0x3cce9156	0.025215786
92	0xbc5b5278	-0.013386361
93	0x3cfc4df0	0.030798882
94	0x3bd0bd7f	0.006370246
95	0x3cf642f5	0.030061224
96	0x3d34f0e6	0.04417505
97	0x3c76f376	0.015072694
98	0x3bff24d3	0.007786372
99	0xbe29ba0a	-0.16574875
100	0x3d6cea8e	0.057840876
101	0xbbdd7efb	-0.006759522
102	0x3dc0f149	0.094210215
103	0x3c9f432c	0.01944121
104	0x3d046c74	0.03232999
105	0x3da47b9a	0.080313876
106	0xbbf1208f	-0.0073586176
107	0x3d7893cb	0.06068782
108	0x3dc7b3a2	0.09751059
109	0xbe0f48c8	-0.13992608
110	0xbce23515	-0.027613202
111	0xbb71490a	-0.0036817216
112	0x3e0e3d07	0.13890468
113	0x3ca1f8c2	0.019771937
114	0xbcd9689a	-0.026539136
115	0xbd0d02f4	-0.034426644
116	0x3d6fd78e	0.05855518
117	0xbe24930f	-0.16071723
118	0xbcd628ca	-0.026142497
119	0x3dac11e8	0.08401853
120	0x3a9e18a8	0.0012061791
121	0x3b9ec632	0.004845404
122	0xbcd32338	-0.02577363
123	0xbcff22b6	-0.031144481
124	0x3c8c145a	0.017099548
125	0xbc448ec6	-0.01199693
126	0x3c85d2f1	0.016335936
127	0x3e068b27	0.1313902
128	0xbdd87029	-0.10568268
129	0xbd245511	-0.04012019
130	0xbc108d01	-0.00882268
131	0xbc019931	-0.007910059
132	0x3d8c8301	0.068609245
133	0xbcee47c5	-0.029086957
134	0x3d22f155	0.039780933
135	0x3c070c41	0.008242668
136	0x3d8a590b	0.06755265
137	0xbd53b5c7	-0.05168703
138	0xbc5635b7	-0.01307433
139	0x3d2f1b44	0.042750612
140	0xbd9fcc55	-0.07802645
141	0xbcb5328b	-0.022118827
142	0x3da1d9a5	0.079028405
143	0x3d8bdc2f	0.06829106
144	0x3d39184a	0.04518918
145	0xbcda5ae7	-0.026654674
146	0x3d98fea9	0.074704476
147	0x3d0e3429	0.034717713
148	0x3d3f74cb	0.04674224
149	0x3d45ba81	0.048273567
150	0xbe0612f7	-0.13093172
151	0xbbe16d20	-0.006879464
152	0xbdc71b66	-0.09722023
153	0xbca4eb0c	-0.02013161
154	0x3d65831f	0.05603325
155	0xbdab22c1	-0.08356238
156	0xbb0126b7	-0.0019706914
157	0x3d6a539d	0.057208646
158	0x3d79239a	0.060824968
159	0x3d7a8f6a	0.061171927
160	0xbd00a480	-0.03140688
161	0x3d0cbe16	0.034360968
162	0x3da07252	0.07834305
163	0xbda0345f	-0.07822489
164	0xbbe96a84	-0.0071232934
165	0xbd8a956d	-0.06766782
166	0xbd088077	-0.03332564
167	0x3bde98e2	0.0067931274
168	0x3d43c2d8	0.04779324
169	0xbc9b13dd	-0.01893037
170	0x3d67ca77	0.05658957
171	0x3cf02b54	0.029317535
172	0xbd2a516b	-0.041581552
173	0x3bff1d07	0.0077854428
174	0x3dfd27cb	0.123611055
175	0x3dbda72a	0.092604
176	0xbd958fee	-0.07302843
177	0xbddc8cb3	-0.10769024
178	0xbca9bff6	-0.020721417
179	0xbd42cb9a	-0.04755745
180	0x3cfe966c	0.031077586
181	0xbd834334	-0.06409302
182	0x3d8414b7	0.064492635
183	0x3bc67fd4	0.006057719
184	0x3c16c478	0.009202115
185	0xbda86f36	-0.08224337
186	0xbcf05e77	-0.02934192
187	0x3cc7b7c0	0.024379611
188	0x3d4cab2e	0.049967937
189	0x3d12ae41	0.035810713
190	0x3d0b64f9	0.034031842
191	0xbdb64d03	-0.089014076
192	0x3b8a0fdf	0.0042133178
193	0xbbd6088b	-0.00653178
194	0x3c874765	0.016513536
195	0x3ccb319c	0.024803929
196	0xbd70bb08	-0.058772117
197	0xbd33f6b7	-0.043936457
198	0x3bbe508d	0.0058079422
199	0xbd89462d	-0.06702838
200	0x3c91a794	0.017780103
201	0x3acb1778	0.0015494665
202	0xbd2ce10c	-0.04220681
203	0x3ccab2b1	0.02474341
204	0x3cb31f07	0.02186538
205	0x3d8c8ef3	0.06863203
206	0x3e1f20c9	0.1553985
207	0x3cf8471a	0.030307341
208	0x3d13db58	0.036097854
209	0xbdb6051f	-0.088876955
210	0x3dadaad6	0.0847985
211	0x3d09d81c	0.033653364
212	0xbd494e00	-0.049146652
213	0xbc23ed8b	-0.010005365
214	0x3d82a29d	0.06378672
215	0xbcfee521	-0.031115117
216	0xbcc990ab	-0.024605116
217	0xbd3a7bf3	-0.045528363
218	0xbd09a0d8	-0.03360066
219	0x3d1942c5	0.037417192
220	0x3de3b99c	0.111193866
221	0x3de215b3	0.11039295
222	0xbdda94b2	-0.10672893
223	0xbb1f11ab	-0.0024272006
224	0x3d9e118e	0.07718192
225	0xbc3d9ba2	-0.01157275
226	0xbdf01e91	-0.1172458
227	0x3ddfdf8c	0.1093131
228	0xbd422767	-0.04740086
229	0xbca314a4	-0.019907303
230	0x3e0cc236	0.1374596
231	0xbdca8103	-0.09887888
232	0x3da136ef	0.07871806
233	0x3b34e89e	0.002760447
234	0xbd3bcf74	-0.04585214
235	0xbdf4950a	-0.119424894
236	0xbc56cfd7	-0.013111076
237	0x3c9239af	0.017849771
238	0x3d8e7cf7	0.06957429
239	0xbdf2b21e	-0.118503794
240	0xbde2c408	-0.11072546
241	0xbdc2a674	-0.09504405
242	0x3dcae7ef	0.09907519
243	0xbd2ce7fd	-0.04221343
244	0x3caae6d9	0.02086203
245	0x3c6b2576	0.014352193
246	0x3d454b56	0.04816755
247	0xbcb14da2	-0.021643464
248	0x3df820e2	0.12115647
249	0x3c0ef048	0.00872428
250	0xbdc1a800	-0.094558716
251	0x3e1acbbf	0.15116785
252	0x3df9b338	0.121923864
253	0xbccef412	-0.025262866
254	0x3d2281dd	0.03967463
255	0xbd5ac77d	-0.053412903

attn_mask f4 [100, 100]
0	0x00000000	0.0
1	0x00000000	0.0
2	0x00000000	0.0
3	0x00000000	0.0
4	0x00000000	0.0
5	0x00000000	0.0
6	0x00000000	0.0
7	0x00000000	0.0
8	0x00000000	0.0
9	0x00000000	0.0
10	0x00000000	0.0
11	0x00000000	0.0
12	0x00000000	0.0
13	0x00000000	0.0
14	0x00000000	0.0
15	0x00000000	0.0
16	0x00000000	0.0
17	0x00000000	0.0
18	0x00000000	0.0
19	0x00000000	0.0
20	0x00000000	0.0
21	0x00000000	0.0
22	0x00000000	0.0
23	0x00000000	0.0
24	0x00000000	0.0
25	0x00000000	0.0
26	0x00000000	0.0
27	0x00000000	0.0
28	0x00000000	0.0
29	0x00000000	0.0
30	0x00000000	0.0
31	0x00000000	0.0
32	0x00000000	0.0
33	0x00000000	0.0
34	0x00000000	0.0
35	0x00000000	0.0
36	0x00000000	0.0
37	0x00000000	0.0
38	0x00000000	0.0
39	0x00000000	0.0
40	0x00000000	0.0
41	0x00000000	0.0
42	0x00000000	0.0
43	0x00000000	0.0
44	0x00000000	0.0
45	0x00000000	0.0
46	0x00000000	0.0
47	0x00000000	0.0
48	0x00000000	0.0
49	0x00000000	0.0
50	0x00000000	0.0
51	0x00000000	0.0
52	0x00000000	0.0
53	0x00000000	0.0
54	0x00000000	0.0
55	0x00000000	0.0
56	0x00000000	0.0
57	0x00000000	0.0
58	0x00000000	0.0
59	0x00000000	0.0
60	0x00000000	0.0
61	0x00000000	0.0
62	0x00000000	0.0
63	0x00000000	0.0
64	0x00000000	0.0
65	0x00000000	0.0
66	0x00000000	0.0
67	0x00000000	0.0
68	0x00000000	0.0
69	0x00000000	0.0
70	0x00000000	0.0
71	0x00000000	0.0
72	0x00000000	0.0
73	0x00000000	0.0
74	0x00000000	0.0
75	0x00000000	0.0
76	0x00000000	0.0
77	0x00000000	0.0
78	0x00000000	0.0
79	0x00000000	0.0
80	0x00000000	0.0
81	0x00000000	0.0
82	0x00000000	0.0
83	0x00000000	0.0
84	0x00000000	0.0
85	0x00000000	0.0
86	0x00000000	0.0
87	0x00000000	0.0
88	0x00000000	0.0
89	0x00000000	0.0
90	0x00000000	0.0
91	0x00000000	0.0
92	0x00000000	0.0
93	0x00000000	0.0
94	0x00000000	0.0
95	0x00000000	0.0
96	0x00000000	0.0
97	0x00000000	0.0
98	0x00000000	0.0
99	0x00000000	0.0
100	0x00000000	0.0
101	0x00000000	0.0
102	0x00000000	0.0
103	0x00000000	0.0
104	0x00000000	0.0
105	0x00000000	0.0
106	0x00000000	0.0
107	0x00000000	0.0
108	0x00000000	0.0
109	0x00000000	0.0
110	0x00000000	0.0
111	0x00000000	0.0
112	0x00000000	0.0
113	0x00000000	0.0
114	0x00000000	0.0
115	0x00000000	0.0
116	0x00000000	0.0
117	0x00000000	0.0
118	0x00000000	0.0
119	0x00000000	0.0
120	0x00000000	0.0
121	0x00000000	0.0
122	0x00000000	0.0
123	0x00000000	0.0
124	0x00000000	0.0
125	0x00000000	0.0
126	0x00000000	0.0
127	0x00000000	0.0
128	0x00000000	0.0
129	0x00000000	0.0
130	0x00000000	0.0
131	0x00000000	0.0
132	0x00000000	0.0
133	0x00000000	0.0
134	0x00000000	0.0
135	0x00000000	0.0
136	0x00000000	0.0
137	0x00000000	0.0
138	0x00000000	0.0
139	0x00000000	0.0
140	0x00000000	0.0
141	0x00000000	0.0
142	0x00000000	0.0
143	0x00000000	0.0
144	0x00000000	0.0
145	0x00000000	0.0
146	0x00000000	0.0
147	0x00000000	0.0
148	0x00000000	0.0
149	0x00000000	0.0
150	0x00000000	0.0
151	0x00000000	0.0
152	0x00000000	0.0
153	0x00000000	0.0
154	0x00000000	0.0
155	0x00000000	0.0
156	0x00000000	0.0
157	0x00000000	0.0
158	0x00000000	0.0
159	0x00000000	0.0
160	0x00000000	0.0
161	0x00000000	0.0
162	0x00000000	0.0
163	0x00000000	0.0
164	0x00000000	0.0
165	0x00000000	0.0
166	0x00000000	0.0
167	0x00000000	0.0
168	0x00000000	0.0
169	0x00000000	0.0
170	0x00000000	0.0
171	0x00000000	0.0
172	0x00000000	0.0
173	0x00000000	0.0
174	0x00000000	0.0
175	0x00000000	0.0
176	0x00000000	0.0
177	0x00000000	0.0
178	0x00000000	0.0
179	0x00000000	0.0
180	0x00000000	0.0
181	0x00000000	0.0
182	0x00000000	0.0
183	0x00000000	0.0
184	0x00000000	0.0
185	0x00000000	0.0
186	0x00000000	0.0
187	0x00000000	0.0
188	0x00000000	0.0
189	0x00000000	0.0
190	0x00000000	0.0
191	0x00000000	0.0
192	0x00000000	0.0
193	0x00000000	0.0
194	0x00000000	0.0
195	0x00000000	0.0
196	0x00000000	0.0
197	0x00000000	0.0
198	0x00000000	0.0
199	0x00000000	0.0
200	0x00000000	0.0
201	0x00000000	0.0
202	0x00000000	0.0
203	0x00000000	0.0
204	0x00000000	0.0
205	0x00000000	0.0
206	0x00000000	0.0
207	0x00000000	0.0
208	0x00000000	0.0
209	0x00000000	0.0
210	0x00000000	0.0
211	0x00000000	0.0
212	0x00000000	0.0
213	0x00000000	0.0
214	0x00000000	0.0
215	0x00000000	0.0
216	0x00000000	0.0
217	0x00000000	0.0
218	0x00000000	0.0
219	0x00000000	0.0
220	0x00000000	0.0
221	0x00000000	0.0
222	0x00000000	0.0
223	0x00000000	0.0
224	0x00000000	0.0
225	0x00000000	0.0
226	0x00000000	0.0
227	0x00000000	0.0
228	0x00000000	0.0
229	0x00000000	0.0
230	0x00000000	0.0
231	0x00000000	0.0
232	0x00000000	0.0
233	0x00000000	0.0
234	0x00000000	0.0
235	0x00000000	0.0
236	0x00000000	0.0
237	0x00000000	0.0
238	0x00000000	0.0
239	0x00000000	0.0
240	0x00000000	0.0
241	0x00000000	0.0
242	0x00000000	0.0
243	0x00000000	0.0
244	0x00000000	0.0
245	0x00000000	0.0
246	0x00000000	0.0
247	0x00000000	0.0
248	0x00000000	0.0
249	0x00000000	0.0
250	0x00000000	0.0
251	0x00000000	0.0
252	0x00000000	0.0
253	0x00000000	0.0
254	0x00000000	0.0
255	0x00000000	0.0
